…
    &lt;/div&gt;
&lt;/div&gt;
&lt;/div&gt;

&lt;div class=&quot;output_wrapper&quot;&gt;
&lt;div class=&quot;output&quot;&gt;

&lt;div class=&quot;output_area&quot;&gt;

&lt;div class=&quot;output_subarea output_stream output_stdout output_text&quot;&gt;
&lt;pre&gt;____________________________________________________________________________________________________
Layer (type)                     Output Shape          Param #     Connected to                     
====================================================================================================
img_in (InputLayer)              (None, 120, 160, 3)   0                                            
____________________________________________________________________________________________________
convolution2d_1 (Convolution2D)  (None, 118, 158, 8)   224         img_in[0][0]                     
____________________________________________________________________________________________________
activation_1 (Activation)        (None, 118, 158, 8)   0           convolution2d_1[0][0]            
____________________________________________________________________________________________________
maxpooling2d_1 (MaxPooling2D)    (None, 59, 79, 8)     0           activation_1[0][0]               
____________________________________________________________________________________________________
convolution2d_2 (Convolution2D)  (None, 57, 77, 16)    1168        maxpooling2d_1[0][0]             
____________________________________________________________________________________________________
activation_2 (Activation)        (None, 57, 77, 16)    0           convolution2d_2[0][0]            
____________________________________________________________________________________________________
maxpooling2d_2 (MaxPooling2D)    (None, 28, 38, 16)    0           activation_2[0][0]               
____________________________________________________________________________________________________
convolution2d_3 (Convolution2D)  (None, 26, 36, 32)    4640        maxpooling2d_2[0][0]             
____________________________________________________________________________________________________
activation_3 (Activation)        (None, 26, 36, 32)    0           convolution2d_3[0][0]            
____________________________________________________________________________________________________
maxpooling2d_3 (MaxPooling2D)    (None, 13, 18, 32)    0           activation_3[0][0]               
____________________________________________________________________________________________________
flatten_1 (Flatten)              (None, 7488)          0           maxpooling2d_3[0][0]             
____________________________________________________________________________________________________
dense_1 (Dense)                  (None, 256)           1917184     flatten_1[0][0]                  
____________________________________________________________________________________________________
activation_4 (Activation)        (None, 256)           0           dense_1[0][0]                    
____________________________________________________________________________________________________
dropout_1 (Dropout)              (None, 256)           0           activation_4[0][0]               
____________________________________________________________________________________________________
angle_out (Dense)                (None, 1)             257         dropout_1[0][0]                  
====================================================================================================
Total params: 1,923,473
Trainable params: 1,923,473
Non-trainable params: 0
____________________________________________________________________________________________________
&lt;/pre&gt;
&lt;/div&gt;
&lt;/div&gt;

&lt;/div&gt;
&lt;/div&gt;

&lt;/div&gt;
…
